…
15 , 1 )) net . add_module ( \"sigmoid\" , nn . Sigmoid ()) return net net = create_net () print ( net ) Sequential( (linear1): Linear(in_features=15, out_features=20, bias=True) (relu1): ReLU() (linear2): Linear(in_features=20, out_features=15, bias=True) (relu2): ReLU() (linear3): Linear(in_features=15, out_features=1, bias=True) (sigmoid): Sigmoid() ) from torchkeras import summary summary ( net , input_shape = ( 15 ,)) ---------------------------------------------------------------- Layer (type) Output Shape Param # ================================================================ Linear-1 [-1, 20] 320 ReLU-2 [-1, 20] 0 Linear-3 [-1, 15] 315 ReLU-4 [-1, 15] 0 Linear-5 [-1, 1] 16 Sigmoid-6 [-1, 1] 0 ================================================================ Total params: 651 Trainable params: 651 Non-trainable params: 0 ---------------------------------------------------------------- Input size (MB): 0.000057 Forward/backward pass size (MB): 0.000549 Params size (MB): 0.002483 Estimated Total Size (MB): 0.003090 ---------------------------------------------------------------- \u4e09\uf
…
de=False) (conv2): Conv2d(32, 64, kernel_size=(5, 5), stride=(1, 1)) (dropout): Dropout2d(p=0.1, inplace=False) (adaptive_pool): AdaptiveMaxPool2d(output_size=(1, 1)) (flatten): Flatten() (linear1): Linear(in_features=64, out_features=32, bias=True) (relu): ReLU() (linear2): Linear(in_features=32, out_features=1, bias=True) (sigmoid): Sigmoid() ) import torchkeras torchkeras . summary ( net , input_shape = ( 3 , 32 , 32 )) ---------------------------------------------------------------- Layer (type) Output Shape Param # ================================================================ Conv2d-1 [-1, 32, 30, 30] 896 MaxPool2d-2 [-1, 32, 15, 15] 0 Conv2d-3 [-1, 64, 11, 11] 51,264 MaxPool2d-4 [-1, 64, 5, 5] 0 Dropout2d-5 [-1, 64, 5, 5] 0 AdaptiveMaxPool2d-6 [-1, 64, 1, 1] 0 Flatten-7 [-1, 64] 0 Linear-8 [-1, 32] 2,080 ReLU-9 [-1, 32] 0 Linear-10 [-1, 1] 33 Sigmoid-11 [-1, 1] 0 ================================================================ Total params: 54,273 Trainable params: 54,273 Non-trainable params: 0 ---------------------------------------------------------------- Input size (MB): 0.011719 Forward/backward pass size (MB): 0.359634 Params size (MB): 0.207035 Estimated Total Size (MB): 0.578388 ---------------------------------------------------------------- \u4
…
 kernel_size=(5,), stride=(1,)) (pool_1): MaxPool1d(kernel_size=2, stride=2, padding=0, dilation=1, ceil_mode=False) (relu_1): ReLU() (conv_2): Conv1d(16, 128, kernel_size=(2,), stride=(1,)) (pool_2): MaxPool1d(kernel_size=2, stride=2, padding=0, dilation=1, ceil_mode=False) (relu_2): ReLU() ) (dense): Sequential( (flatten): Flatten() (linear): Linear(in_features=6144, out_features=1, bias=True) (sigmoid): Sigmoid() ) ) ---------------------------------------------------------------- Layer (type) Output Shape Param # ================================================================ Embedding-1 [-1, 200, 3] 30,000 Conv1d-2 [-1, 16, 196] 256 MaxPool1d-3 [-1, 16, 98] 0 ReLU-4 [-1, 16, 98] 0 Conv1d-5 [-1, 128, 97] 4,224 MaxPool1d-6 [-1, 128, 48] 0 ReLU-7 [-1, 128, 48] 0 Flatten-8 [-1, 6144] 0 Linear-9 [-1, 1] 6,145 Sigmoid-10 [-1, 1] 0 ================================================================ Total params: 40,625 Trainable params: 40,625 Non-trainable params: 0 ---------------------------------------------------------------- Input size (MB): 0.000763 Forward/backward pass size (MB): 0.287796 Params size (MB): 0.154972 Estimated Total Size (MB): 0.443531 ---------------------------------------------------------------- \u4
…
 kernel_size=(5, 5), stride=(1, 1)) (pool2): MaxPool2d(kernel_size=2, stride=2, padding=0, dilation=1, ceil_mode=False) (dropout): Dropout2d(p=0.1, inplace=False) (adaptive_pool): AdaptiveMaxPool2d(output_size=(1, 1)) (flatten): Flatten() (linear1): Linear(in_features=64, out_features=32, bias=True) (relu): ReLU() (linear2): Linear(in_features=32, out_features=10, bias=True) ) summary ( net , input_shape = ( 1 , 32 , 32 )) ---------------------------------------------------------------- Layer (type) Output Shape Param # ================================================================ Conv2d-1 [-1, 32, 30, 30] 320 MaxPool2d-2 [-1, 32, 15, 15] 0 Conv2d-3 [-1, 64, 11, 11] 51,264 MaxPool2d-4 [-1, 64, 5, 5] 0 Dropout2d-5 [-1, 64, 5, 5] 0 AdaptiveMaxPool2d-6 [-1, 64, 1, 1] 0 Flatten-7 [-1, 64] 0 Linear-8 [-1, 32] 2,080 ReLU-9 [-1, 32] 0 Linear-10 [-1, 10] 330 ================================================================ Total params: 53,994 Trainable params: 53,994 Non-trainable params: 0 ---------------------------------------------------------------- Input size (MB): 0.003906 Forward/backward pass size (MB): 0.359695 Params size (MB): 0.205971 Estimated Total Size (MB): 0.569572 ---------------------------------------------------------------- imp
…
